…
 'start_val': 0.2}
- time_horizon = 128
- training_epoch = 4
- to_train = 0
- training_frequency = 128
- explore_var_scheduler = <slm_lab.agent.algorithm.policy_util.VarScheduler object at 0x7f4927bd55f8>
- clip_eps_scheduler = <slm_lab.agent.algorithm.policy_util.VarScheduler object at 0x7f4927bd5668>
- entropy_coef_scheduler = <slm_lab.agent.algorithm.policy_util.VarScheduler object at 0x7f4927bd5780>
- calc_advs_v_targets = <bound method ActorCritic.calc_gae_advs_v_targets of <slm_lab.agent.algorithm.ppo.PPO object at 0x7f4927bd5550>>
- shared = True
- net = ConvNet(
  (conv_model): Sequential(
    (0): Conv2d(4, 32, kernel_size=(8, 8), stride=(4, 4))
    (1): ReLU()
    (2): Conv2d(32, 64, kernel_size=(4, 4), stride=(2, 2))
    (3): ReLU()
    (4): Conv2d(64, 64, kernel_size=(3, 3), stride=(1, 1))
    (5): ReLU()
  )
  (fc_model): Sequential(
    (0): Linear(in_features=3136, out_features=512, bias=True)
    (1): ReLU()
  )
  (model_tails): ModuleList(
    (0): Sequential(
      (0): Linear(in_features=512, out_features=18, bias=True)
    )
    (1): Sequential(
      (0): Linear(in_features=512, out_features=1, bias=True)
    )
  )
  (loss_fn): MSELoss()
)
- net_names = ['net']
- optim = Adam (
Parameter Group 0
    amsgrad: False
    betas: (0.9, 0.999)
    eps: 1e-08
    initial_lr: 0.0001
    lr: 0.0001
    weight_decay: 0
)
- lr_scheduler = <torch.optim.lr_scheduler.LambdaLR object at 0x7f4927bd5e48>
- global_net = None
- old_net = ConvNet(
  (conv_model): Sequential(
    (0): Conv2d(4, 32, kernel_size=(8, 8), stride=(4, 4))
    (1): ReLU()
    (2): Conv2d(32, 64, kernel_size=(4, 4), stride=(2, 2))
    (3): ReLU()
    (4): Conv2d(64, 64, kernel_size=(3, 3), stride=(1, 1))
    (5): ReLU()
  )
  (fc_model): Sequential(
    (0): Linear(in_features=3136, out_features=512, bias=True)
    (1): ReLU()
  )
  (model_tails): ModuleList(
    (0): Sequential(
      (0): Linear(in_features=512, out_features=18, bias=True)
    )
    (1): Sequential(
      (0): Linear(in_features=512, out_features=1, bias=True)
    )
  )
  (loss_fn): MSELoss()
)
[2025-06-20 19:07:26,494 PID:1935 INFO __init__.py __init__] Agent:
- spec = {'cuda_offset': 0,
 'distributed': False,
 'eval_frequency': 25000,
 'experiment': 0,
 'experiment_ts': '2025_06_20_190719',
 'git_sha': 'cae945a294cb111ee8e568bb4465ee74c501478b',
 'graph_prepath': 'data/ppo_kangaroo_2025_06_20_190719/graph/ppo_kangaroo_t0_s2',
…
